APP_DEVELOPER/chrome_data/optimization_guide_model_store/20/31A8E29053E7B742/C510D5BA31B8451B/model.tflite (tflite, 64852 bytes, 5 tensors)

arith.constant f4 [1, 64]
000000 a1 41 e9 bd de c3 76 bc 88 a4 88 be e6 29 9e 3e
       -0.11389471 -0.015061347 -0.26688027 0.3089134
000010 2c 42 ae 3d b3 a3 8f 3d bb c1 e9 bd c6 b4 37 3a
       0.08508715 0.07013645 -0.11413904 0.00070078333
000020 97 35 46 be d8 86 8c be b7 ea 8e 3e 50 37 98 be
       -0.1935638 -0.27446628 0.27913448 -0.297297
000030 17 3e 85 be 5f d5 81 bd d9 16 a4 bd f2 86 4b 3e
       -0.26023933 -0.063395254 -0.0801217 0.19875696
000040 ea f9 11 3e c2 4a dc 3e 44 9e 46 3e de cf c9 bd
       0.14255491 0.43025786 0.19396311 -0.09854101
000050 2d 38 f8 3d c9 5c a2 be 49 4f 30 be ba 3b b4 bd
       0.1212009 -0.31711414 -0.17217745 -0.088004544
000060 1b b4 15 3d 2d 83 10 3e 8d a7 18 3e 63 64 1f be
       0.036548715 0.1411254 0.14907666 -0.15565638
000070 cd 9c 83 bd 46 0d 66 be 03 4a e1 3c 69 c5 c5 3e
       -0.06426392 -0.22466001 0.027501112 0.38627174
000080 4c 76 32 bd 3b 96 89 3e a6 41 45 3e f0 90 83 be
       -0.043569848 0.2687243 0.19263324 -0.25696516
000090 e9 88 79 3e 4e f9 b4 3c 4e 7a 95 be 2a 0f 71 be
       0.24368633 0.022091534 -0.29194874 -0.23540941
0000a0 ea 96 44 be c4 2a 47 3e 7e 44 22 bd 44 2a 45 be
       -0.19198194 0.19449908 -0.0396161 -0.19254404
0000b0 15 83 3a 3d a1 51 33 3e 6f 33 99 be ca 54 8c 3d
       0.045535166 0.17511608 -0.29922053 0.0685211
0000c0 18 24 cf bd 25 08 9b be 5b 82 69 3e 28 58 5c be
       -0.10114306 -0.3027965 0.22803633 -0.21518004
0000d0 1b 21 00 3e dc b1 b4 be 94 6d 11 3e 1e 73 2a be
       0.12512629 -0.35291946 0.14201957 -0.16645476
0000e0 37 9e 54 be 40 aa 0e be 5c e0 29 be fb bb 7a 3e
       -0.20763479 -0.13932133 -0.16589493 0.24485771
0000f0 b8 7a 5a bd ea 20 8b 3e b8 51 74 be 85 e0 83 be
       -0.05333969 0.2717355 -0.23859298 -0.25757232

arith.constant1 f4 [64, 128]
000000 d7 58 49 3d af b0 05 be 30 8d ac 3c 58 87 d9 bd
       0.04915699 -0.1305568 0.021063417 -0.10621518
000010 33 10 e8 bc d5 61 05 3e ae bc 53 be 55 32 2a 3e
       -0.028328037 0.13025601 -0.20677444 0.16620763
000020 d8 4b 05 3e 13 03 70 bd 6b ba 17 3e c0 ff 0a be
       0.13017213 -0.05859668 0.14817207 -0.13574123
000030 c2 0a 8d 3c 2f 5a aa bd 42 60 e9 bd 1e c9 82 bd
       0.017217044 -0.083179824 -0.11395313 -0.06386016
000040 92 de 9e 3d 1c 46 ae bd 3b 1a 83 3c 38 bd f3 3d
       0.07757296 -0.08509466 0.016003719 0.11901325
000050 fc 1d 14 3e 64 79 6b bd ce de 00 be da 32 81 3d
       0.14464563 -0.057488814 -0.12584993 0.06308527
000060 18 83 f3 3c 3a 21 43 bd 6d 3f 32 3e bf f0 a1 bd
       0.029725596 -0.04763911 0.17407008 -0.07907247
000070 c4 6c 03 3e 91 dc 31 3e f8 3d d1 3d 6a eb ff bd
       0.1283446 0.17369296 0.10216898 -0.124960735
000080 93 70 2c 3c 0c 41 9a 3c 58 af 31 be fd 94 1f 3e
       0.010524887 0.018829845 -0.17352045 0.15584178
000090 87 5e c6 bd d1 a1 1d be c3 6a aa bd 81 2a 3e be
       -0.096859984 -0.1539376 -0.083211444 -0.18570901
0000a0 05 38 dc bd fe 6d 93 bc 00 58 a6 bc 2a bc dd bb
       -0.107528724 -0.017996784 -0.020305634 -0.0067668157
0000b0 65 d3 bc bd 34 54 af bc 4e 9c ca bd 4b 08 eb 3c
       -0.09220008 -0.021402456 -0.09893094 0.028690478
0000c0 65 e8 00 3d d7 a6 0c be e1 56 cc bc 34 28 06 3c
       0.03147163 -0.1373552 -0.02494377 0.008188296
0000d0 f8 e4 03 be 71 44 2c bd 48 ae 15 be 34 c4 4c bc
       -0.12880313 -0.04205746 -0.14617264 -0.01249795
0000e0 8e d3 21 3e ff d0 15 3e b3 20 09 3e 2c 6f 70 bd
       0.15803358 0.14630507 0.1339138 -0.05869977
0000f0 17 7a 53 3d 38 1c 25 3e 39 f7 31 3e fe 2c 8d bd
       0.051630106 0.16124046 0.17379464 -0.06893347
000100 4d 3e 90 bd 31 91 69 3d 30 46 a4 3d b5 61 70 3c
       -0.07043133 0.05702323 0.080212 0.014671733
000110 6a 2f 59 3c 6f 2d 56 3b b0 11 08 be 10 17 bf 3d
       0.013255933 0.003268089 -0.13287997 0.09330571
000120 9a be 47 bd cd 19 d3 3d 10 9c e5 3b f9 f8 c8 3c
       -0.048765756 0.103076555 0.0070071295 0.024532782
000130 14 80 76 3d f4 52 ef 3d 25 da b1 bd ac 8d ab bc
       0.06018074 0.11685744 -0.08684186 -0.020941578
000140 2f 8a 0d bd 5c c6 09 3e 72 a0 33 3e 9c b2 2e bd
       -0.03455561 0.13454574 0.17541674 -0.042650804
000150 27 53 64 3d 55 77 2d 3e 46 e0 7a 3d 7e 89 13 3e
       0.055743363 0.16940053 0.06124904 0.14407918
000160 2f 5d f2 3d a1 b8 d7 bc 25 fe 41 bd 70 18 b9 3d
       0.118341796 -0.026333155 -0.04736151 0.09037864
000170 27 9b 09 bc c2 bf 37 bc 07 bf 10 bc 70 6a ec bd
       -0.008398808 -0.011215152 -0.008834607 -0.11543739
000180 68 a7 45 3c 90 2d 48 bb 8a a2 be 3c a3 86 b8 3d
       0.012063839 -0.0030544735 0.023270864 0.09010055
000190 e3 5b 61 3d 39 10 76 3d 6e 6b 6a 3c ab 9f cf bd
       0.05501927 0.060074065 0.01430784 -0.10137876
0001a0 3c 71 ff 3d 79 dd bd bd 99 8c ed 3d 7b 41 01 bd
       0.124727696 -0.09270758 0.115990825 -0.031556588
0001b0 ef 98 42 be 65 8c 8a bd 49 95 23 3e 90 32 04 3e
       -0.19003652 -0.067650594 0.15974917 0.12909913
0001c0 b9 de 47 3e 26 d9 98 3d 3d f3 2c 3e 65 93 cf 3d
       0.19518556 0.07463293 0.16889663 0.10135535
0001d0 7e 40 f7 bd fd 31 31 3e 77 a5 c2 3c 98 26 3f 3c
       -0.12072848 0.17304225 0.02376054 0.011666916
0001e0 c0 29 88 bd b4 84 23 3e ab 25 ba 3d 03 b5 65 bd
       -0.06648588 0.15968591 0.09089216 -0.05608083
0001f0 ec f4 42 bd 05 36 b0 ba 70 31 46 39 1a 6a cf 3d
       -0.047596857 -0.0013443833 0.00018901168 0.10127659
000200 c9 a6 d5 b9 29 2d 09 3e 0e c4 7a bd f6 63 b1 bc
       -0.0004075079 0.13396133 -0.06122213 -0.02165411
000210 33 1c dd bd 5e 2e 1f 3e e1 41 07 3e 33 bf 20 be
       -0.10796394 0.15545031 0.13208725 -0.15697937
000220 7d df 07 be aa 1e 1f bc d7 8c f1 3d 00 5a 45 bd
       -0.13268848 -0.009711901 0.11794441 -0.048181534
000230 30 8c 0c bd 41 75 27 3e a2 60 04 be 2d b6 13 3e
       -0.03431338 0.16353323 -0.12927487 0.14424963
000240 2e 96 05 3d 9e 1b ea 3d d8 21 3c bd b4 4c 1a be
       0.032613926 0.11431049 -0.045930713 -0.15068322
000250 f8 4e f4 3d 7a ef 34 be 51 1b d9 bc 52 04 57 3d
       0.119291246 -0.17669478 -0.026502283 0.052494355
000260 40 94 af bd 04 fa fb 3d 9a 7f 0c be 3a 8d 67 bd
       -0.08573198 0.12303546 -0.13720551 -0.05653117
000270 33 a0 18 3e e1 53 b9 bd d0 4c bb bd 97 3a e0 3d
       0.14904861 -0.09049202 -0.0914551 0.10948675
000280 6c a1 33 be 30 91 b7 3c 6f b4 d6 3d d2 47 2d be
       -0.17542046 0.022408098 0.10483634 -0.16921929
000290 17 1d 03 3e ab 13 96 3d 73 b6 96 3d 21 07 3e 3d
       0.12804066 0.0732797 0.07359018 0.046393517
0002a0 b4 d6 9f bd 1b be 83 bd 8d b5 13 3d e7 b6 0e 3d
       -0.07804623 -0.06432744 0.036061812 0.034842398
0002b0 52 c4 3a bd 03 2b 09 3e c8 68 a8 bc bc c3 20 3d
       -0.045597382 0.13395314 -0.020557776 0.039249167
0002c0 ec 27 11 3e 83 da 02 be b4 17 05 bd d9 08 ab 3d
       0.14175385 -0.12778668 -0.03249331 0.08351297
0002d0 eb 3b b8 bd a8 0c f8 bb ae 75 bc bd 10 88 9f 3d
       -0.089958034 -0.007569868 -0.09202133 0.07789624
0002e0 54 5e d3 bc 5a 99 e1 3d 26 14 c8 bd ee a9 2a be
       -0.025801815 0.110155776 -0.09769468 -0.16666386
0002f0 3c 3f 1a 3e 0a e8 04 be 4d df dd 3d f0 91 a6 bd
       0.15063184 -0.12979141 0.10833607 -0.08133304
000300 9b 18 87 bd f1 36 1b be a9 3f 92 bd 7d 42 a1 3d
       -0.0659649 -0.15157677 -0.071410485 0.0787401
000310 6e 49 19 be df 27 b6 bd 22 21 06 be 96 56 38 3e
       -0.14969417 -0.088943236 -0.13098577 0.1800178
000320 a4 d6 77 bd 48 33 ff 3d 44 fb e6 3b 55 a7 d8 bd
       -0.06050743 0.12460953 0.007048996 -0.10578791
000330 15 3d 03 be af 74 30 be 77 b1 0c be 63 44 98 3d
       -0.1281627 -0.17232011 -0.13739572 0.07434919
000340 1e 61 20 be 76 98 21 3e 9d d2 1e 3c 63 60 30 3d
       -0.15662047 0.15780815 0.009693769 0.04306067
000350 de fa 9f 3d 19 b2 d5 bd 50 a1 7e 3c a0 07 aa bd
       0.07811521 -0.1043436 0.01554139 -0.083022356
000360 bb f2 f9 bc 73 f0 e8 bd 2e 87 c1 3d 88 f1 99 3c
       -0.03051125 -0.11373987 0.094496116 0.018791929
000370 62 bc b4 bd 08 0e c7 3b bc fc eb 3d ae ce b3 bd
       -0.08824994 0.0060746707 0.11522815 -0.087796554
000380 ef eb dc bc f9 18 27 3e 83 6e 16 be b2 86 2f 3d
       -0.02696797 0.1631812 -0.14690594 0.042853065
000390 de ff 7f 3d 08 01 99 3d c4 86 cf bc ca 6b 0f be
       0.062499873 0.074709 -0.025332816 -0.14005962
0003a0 c6 73 54 3d 08 59 0a be 60 7c b0 3d d0 58 e7 bd
       0.051868223 -0.13510525 0.08617473 -0.112962365
0003b0 38 06 a6 3d fe e4 ac bb 38 a8 34 be 5f 0a e7 3d
       0.08106655 -0.0052763214 -0.17642295 0.11281275
0003c0 f6 e0 8b bc 90 9d 91 bd ee d8 f0 3d 3d 49 af bd
       -0.017075043 -0.07110131 0.11760126 -0.08558891
0003d0 a9 45 a9 bd 83 8a 8e bd d4 57 7e 3c c0 80 0c 3d
       -0.0826524 -0.06960013 0.01552387 0.034302473
0003e0 e9 27 25 3d f9 dc 82 bc f4 dd 8d bd 72 86 c4 bc
       0.040321264 -0.015974509 -0.069271 -0.02398989
0003f0 69 7a 26 3e 6a 12 0c 3e ec 74 27 be a1 8d d4 bd
       0.16257633 0.136789 -0.16353196 -0.10378576

arith.constant2 f4 [128, 12]
000000 72 13 b3 3d 84 c6 43 bd d7 55 1c 3e d9 e3 03 be
       0.08743943 -0.04779674 0.1526712 -0.12879886
000010 37 df 28 3e 56 e7 c2 bd bc 16 3b be aa 04 23 bd
       0.164914 -0.0951678 -0.18270391 -0.03979937
000020 ef ca cf bd b3 54 1e 3d 08 9d b9 3d 41 65 ef 3c
       -0.101461284 0.038654994 0.090631545 0.029223086
000030 ba 3b 3f be 47 c6 1a 3d 95 d3 d6 3d 6b 88 38 3e
       -0.18675128 0.03778675 0.10489575 0.1802079
000040 52 0b 99 3d ec 70 f2 3d 87 89 53 3e 59 b5 90 3d
       0.07472862 0.118379444 0.20657931 0.07065839
000050 56 fb 3c 3e 7a 6d 1a bc b8 4e 7a 3d cb 22 0d 3c
       0.18455252 -0.009425515 0.06111023 0.008614252
000060 93 a8 42 3e cd 4f d0 3d de 98 43 3e 43 ba 35 be
       0.19009618 0.10171471 0.19101283 -0.17746834
000070 ac 7c df 3c 97 e6 06 bd 45 83 57 3c 06 07 08 be
       0.027281128 -0.03293475 0.013153856 -0.13283929
000080 b2 55 79 bd b2 96 fe bd b3 dd 95 3e 9b a0 25 be
       -0.06087274 -0.124310866 0.29270706 -0.16174547
000090 89 fa 18 be ea 1b 27 be 85 3d 1f bc 17 05 4d 3e
       -0.14939322 -0.16319242 -0.009719257 0.20021473
0000a0 cd 62 af 3c 2b 94 74 3c 1b 52 2d 3b 96 48 92 bc
       0.021409417 0.014927904 0.0026446644 -0.017856877
0000b0 c5 c4 b7 bc 63 84 54 3e 9d aa 55 be 17 79 97 bc
       -0.022432694 0.20753627 -0.20865865 -0.018490357
0000c0 9e 6c 10 be a5 29 73 bd c1 81 07 be 27 d7 ef bb
       -0.14103934 -0.059365887 -0.13233091 -0.0073193493
0000d0 f9 ed 38 3e 36 b2 7c 3d db 7b 07 bd 00 4e 16 3e
       0.1805953 0.061693393 -0.033077102 0.14678192
0000e0 9e a0 80 bc c9 58 29 be fe c5 92 3c 37 9b ea bd
       -0.015701588 -0.16537775 0.017916676 -0.11455386
0000f0 75 1b 78 3d 41 a6 27 3d b5 f9 26 be 16 11 55 3c
       0.06057306 0.040930036 -0.16306193 0.013004562
000100 d2 16 31 bc 86 ff 2b 3c ed 5f bd bc 10 29 eb 3d
       -0.010808663 0.010497933 -0.02311703 0.114824414
000110 db e9 1c be 28 79 50 3e 24 56 c2 3d 36 a1 33 bd
       -0.15323584 0.20358717 0.09489086 -0.043854915
000120 88 06 8d 3d 61 cf 11 3e de 18 50 bd 03 e6 9c bd
       0.06886011 0.14239265 -0.050804965 -0.07661059
000130 f2 75 a9 bc 9b 7f ca 3d 60 4c 40 bd 1e fd 99 bd
       -0.020686124 0.0988762 -0.046947837 -0.075189814
000140 fb 74 03 bd 8b 05 85 3e 58 57 67 bd 76 b1 69 bc
       -0.032093983 0.2598079 -0.056479782 -0.014263501
000150 5d 4b 8d bc 93 60 30 3e bc fa a1 bd 4a 9b 86 bb
       -0.01724785 0.1722434 -0.07909152 -0.0041078674
000160 03 c3 7c 3e e0 4c 3d 3e 3c 8a 3f be ed e0 3a 3e
       0.24683766 0.18486357 -0.18705076 0.18249865
000170 78 14 85 bd 02 7d f9 3c c8 c5 5b bc 4d a5 eb bd
       -0.06498045 0.030455116 -0.013413854 -0.11506138
000180 d9 98 45 3e cb 14 20 3e 35 29 ff 3d c9 ed c4 bd
       0.19296588 0.15632932 0.124590315 -0.096156664
000190 25 90 a1 bd 7c 44 e1 bd 55 35 fa bd 94 08 2f 3e
       -0.078888215 -0.109993905 -0.122172035 0.17093116
0001a0 5e ce c7 3b cd a1 d6 bd bf 64 a2 bd 86 42 aa 3d
       0.006097599 -0.1048008 -0.07929372 0.083134696
0001b0 8e 94 34 3e 4e 1c 80 bd 53 88 36 be d8 bc 0b 3e
       0.17634794 -0.06255399 -0.17825441 0.13646257
0001c0 07 20 4b 3d a9 cc 12 3e 89 19 28 3e d6 e3 c7 bd
       0.04959109 0.14335884 0.16415991 -0.09760253
0001d0 dd 8e 8a bc 5c 2f 9f bd 2c 22 ab 3d 16 67 ac 3d
       -0.016913826 -0.07772705 0.08356127 0.084180996
0001e0 48 6e 2a be c7 3f a5 bc 70 a8 06 be 34 c1 c8 bd
       -0.16643631 -0.020172013 -0.13150191 -0.098024756
0001f0 50 01 46 3e 9a 37 02 be bc 2f 34 3e dc c9 14 be
       0.19336438 -0.12716523 0.17596334 -0.14530128
000200 0c 86 90 bd 48 ee 69 bd 9c 27 07 3c 99 29 f8 bd
       -0.070568174 -0.05711201 0.00824919 -0.12117309
000210 46 6c 46 3d d1 d5 d2 bd ec 66 ea 3d 45 87 79 bb
       0.0484431 -0.102946885 0.11445412 -0.0038075012
000220 a0 41 9d 3c de e6 18 3e 6b 30 82 be 41 04 90 3d
       0.019196332 0.14931819 -0.25427565 0.07032061
000230 2c 3a 54 be db 10 2a be 31 3f df bc 74 c1 d9 3d
       -0.20725316 -0.16607992 -0.027251812 0.106326014
000240 ab cb 18 3e 60 61 83 bd 57 23 9a 3d e4 51 25 3c
       0.14921443 -0.06415057 0.07526272 0.010090325
000250 72 02 ca 3d b9 4b 4d 3d 1d 55 89 be ce b1 06 be
       0.09863748 0.050121043 -0.2682275 -0.13153765
000260 9c b5 44 be 7a 63 39 3c 9d 7e 84 bd b5 fa b9 3d
       -0.19209903 0.011315221 -0.06469462 0.09081022
000270 38 ea 2d 3e 05 41 6c be 44 2b 3b 3e 5a 3f 04 3e
       0.16983879 -0.23071678 0.18278223 0.12914792
000280 da 81 a3 bc bd 0f b5 bd 0c 8e b7 bd 42 ab 1b 3d
       -0.019959379 -0.088408925 -0.0896264 0.03800512
000290 43 33 3a bd fd 82 cf 3c c9 cc bb bd 7a 8f 81 3d
       -0.045459043 0.025331015 -0.09169919 0.06326194
0002a0 5f 54 56 3d f7 2f 57 3e e8 18 2a bc fe da 79 bc
       0.052326556 0.21014391 -0.010381915 -0.015249966
0002b0 24 02 27 3d f6 04 6c bc 54 65 39 3e a0 1d 0d 3c
       0.040773526 -0.01440548 0.1810506 0.00861302
0002c0 0b 8e 1e 3e 2a 39 b9 bb 40 bd 77 be 68 b9 49 3e
       0.15483873 -0.0056525664 -0.24193287 0.19699633
0002d0 f3 be 1e 3e 63 cc fc 3d 35 54 4b 3e b8 b3 28 be
       0.15502529 0.12343671 0.19856341 -0.16474807
0002e0 04 1b 99 3d c0 6c 81 3d ba 8a 17 be 63 73 c1 bd
       0.07475856 0.063195705 -0.14799014 -0.094458364
0002f0 13 58 12 be a7 a4 94 3d 98 df 37 be 7d 87 0d 3d
       -0.1429141 0.072579674 -0.17956388 0.03455304
000300 63 57 06 be 0f 77 40 be 6b 67 18 3e 1f a9 b8 bc
       -0.13119273 -0.18795417 0.14883201 -0.02254158
000310 b4 22 11 3e 92 35 2d 3e 78 12 f4 bd 91 1d 8f bd
       0.14173394 0.16914967 -0.11917585 -0.06988061
000320 b2 b4 28 3e 6e 96 f2 bc c6 7d 56 3d 8a a0 17 3e
       0.1647518 -0.029612746 0.05236604 0.14807335
000330 92 a5 5c be 24 06 32 3d 3c 6f af bc 3e d6 23 3d
       -0.21547535 0.043462887 -0.021415345 0.03999924
000340 af 30 42 be e4 43 42 3d 45 38 0e bd 26 d6 27 be
       -0.18963884 0.047428027 -0.03472163 -0.16390285
000350 54 69 0e 3e 0c fc 39 3e e6 e0 f0 3d e6 fb 22 be
       0.13907367 0.18162555 0.11761646 -0.15916404
000360 2b 6b 21 3e 14 cb 38 3d 7d 03 e9 3d e8 4f 45 3d
       0.15763538 0.045115545 0.113776185 0.048171908
000370 f0 90 0a be 40 2a 00 3e e8 2e 5a 3c 49 af 1d bd
       -0.13531852 0.12516117 0.013316847 -0.038497243
000380 d3 e8 df 3d e4 5f d6 bd bf e9 ab bb de 1b cb 3d
       0.109330796 -0.104675084 -0.0052463706 0.099174246
000390 5c be 17 be f2 f5 27 be 39 63 9a 3d fe a2 51 3d
       -0.1481871 -0.16402414 0.075384565 0.051180832
0003a0 92 91 5b be 21 f9 d5 b9 90 cb 37 bd e0 26 1a 3d
       -0.2144225 -0.0004081214 -0.044871867 0.03763473
0003b0 50 42 db bc d8 fb cb 3d a3 e6 02 be 09 76 1f be
       -0.026765019 0.09960145 -0.12783293 -0.1557237
0003c0 c8 55 e8 bd e3 5e a9 3d d2 ce eb bd 90 6f 14 3e
       -0.113444865 0.08270051 -0.11514057 0.14495683
0003d0 00 c7 41 bc b8 15 2f 3d fe 0f 18 bd 23 2a 2e 3e
       -0.01182723 0.042745322 -0.037124626 0.17008261
0003e0 a0 58 83 bd 8b 49 9c 3d 0e 97 56 3d 2f 54 88 3e
       -0.06413388 0.07631215 0.05239015 0.26626727
0003f0 ca 82 2f 3e 55 5d a6 bb 7d 9c b7 3d ce c4 44 be
       0.17139736 -0.005077044 0.08965395 -0.192157

arith.constant29 f4 [64]
000000 52 20 47 bd fc fd c2 bc b8 bb 4e 3b 3c c7 34 3d
       -0.048614807 -0.02380275 0.0031544995 0.044135317
000010 fb a2 88 bd 92 29 bb 3b ca 88 3d bd 99 c5 cf bc
       -0.06671711 0.0057117427 -0.04627303 -0.025362777
000020 58 a8 a6 3c d5 3f c6 bc 4f bd 66 3d 62 4c 9b bc
       0.020343944 -0.02420036 0.056332882 -0.01895732
000030 a4 0a de bc f9 30 96 3c 04 57 ce 3c b8 a2 49 3d
       -0.027104683 0.018333899 0.025187977 0.049227446
000040 39 ae 30 3d 33 78 21 be 21 57 eb bd 59 f6 53 bc
       0.0431349 -0.15768509 -0.11491228 -0.012937152
000050 72 f0 e0 bd b0 9d 4e 3c 0c 28 c5 bc 27 0b f3 39
       -0.10983361 0.012610838 -0.024066947 0.0004635688
000060 54 2b 44 bc 62 80 9c 3d 18 b9 6b bc a4 71 de bc
       -0.011973221 0.076416746 -0.0143873915 -0.027153797
000070 d2 13 b8 bc 97 a0 fe bc ad 3a ae bc 7f 6e f3 3c
       -0.022470389 -0.031082435 -0.021268213 0.029715775
000080 23 4a 12 bc 63 57 54 3d c0 8c 36 bd 5b 44 10 3c
       -0.008928808 0.05184115 -0.044567823 0.00880536
000090 f6 a8 49 3d 33 22 0a 3c 74 df aa 3c b6 54 43 bc
       0.0492334 0.008431005 0.020858504 -0.011922052
0000a0 88 11 c6 bc d6 9e 3d 3d 2a 07 a0 3c a6 f6 fe bc
       -0.024178281 0.046294056 0.019534666 -0.03112347
0000b0 ff 60 60 bd f4 1f 2b bd 7d 1d df bd 4e d3 94 bd
       -0.054780003 -0.04177852 -0.10894296 -0.07266866
0000c0 3f 9f 7c bd e0 36 1f bd 88 93 22 3d 4c f3 b0 bd
       -0.061675306 -0.038870692 0.039691478 -0.08640155
0000d0 7c 8f 50 bb b6 3d 34 bc f8 bb 73 3c e6 6a 24 bc
       -0.0031823805 -0.011001041 0.014876358 -0.010035252
0000e0 7c 03 05 bd 7d 80 1d bc c7 98 23 bd 55 68 81 bd
       -0.032474026 -0.0096131535 -0.03994062 -0.06318728
0000f0 f8 d3 c6 3c 63 be 68 3d f8 e0 a8 bd 28 f3 4d bc
       0.024270996 0.056822192 -0.082460344 -0.01257018

arith.constant30 f4 [128]
000000 1b 0a fa 3d 28 b9 77 3d 57 38 b0 3d 99 1a 62 3c
       0.12208959 0.060479313 0.08604496 0.013800287
000010 8c aa 64 bd 37 79 b0 bd da 0c c5 bc c5 eb d5 bd
       -0.05582671 -0.0861687 -0.02405398 -0.1044536
000020 07 6e 0c bd 13 eb b0 3c be 6c 01 3d 8b 78 0f bd
       -0.034284618 0.021596467 0.031597845 -0.035027068
000030 91 77 4d bc 71 97 4d bd 4c ea a4 bc d2 c5 b8 bc
       -0.012540714 -0.050193254 -0.020131253 -0.022555266
000040 f6 05 0a bd 1e bd c4 bc ba 3e 8c 3a 8d f9 18 3c
       -0.03369709 -0.02401596 0.0010699846 0.009336841
000050 00 0c 9a bd c1 c5 c0 3d ed bb f6 bc 91 de 1b 3c
       -0.0752182 0.094127186 -0.030118907 0.009513513
000060 89 38 55 3d 79 5c 9d 3b 62 1b aa bd 12 80 0a bd
       0.05205587 0.0048022834 -0.08306004 -0.033813544
000070 b6 fb 47 bd 27 7a 9f bc 95 fa 94 bc 39 69 07 bc
       -0.048824035 -0.019467426 -0.018185893 -0.008264833
000080 32 52 48 bb ca 7e 18 bd 70 be bc bd 13 e4 78 bc
       -0.003056657 -0.03723029 -0.092160106 -0.015191096
000090 74 5c 07 bd 7d 49 22 bb 0e 9b bd 3d d0 ee 28 bd
       -0.033047155 -0.002476304 0.0925809 -0.041243374
0000a0 9b 5d 67 3d 33 6f 06 3d 93 54 44 3d 1e 02 86 3d
       0.056485754 0.03282089 0.04793222 0.065433726
0000b0 2c 5c ea bc 63 55 40 bd ed 3d ad bc 85 15 7a bc
       -0.028608404 -0.04695643 -0.021147693 -0.01526392
0000c0 98 7d 99 bd 2f 24 57 bc 9f 44 d6 3d c0 28 3f bd
       -0.07494658 -0.013131185 0.10462307 -0.04666972
0000d0 fc 10 86 bd aa 3e 35 bd c4 39 62 3d 9a e6 81 bd
       -0.06546208 -0.044249214 0.05523087 -0.06342812
0000e0 c7 76 6c 3d a6 d4 45 bc 17 da 47 bd b4 46 0e 3c
       0.057730462 -0.012074625 -0.04879197 0.008683849
0000f0 89 20 a6 3c ce c1 04 be f9 99 98 3d 51 e1 b5 bc
       0.020279186 -0.12964556 0.07451243 -0.022202166
000100 aa f9 89 bd 87 a3 31 bb be 17 2c bc 5d 11 b8 bc
       -0.06737073 -0.0027105527 -0.010503707 -0.022469217
000110 f8 c7 bd 3b ae 61 f3 3b 33 34 bd bc 8e 9b 1c 3d
       0.0057916604 0.007427416 -0.02309618 0.038234286
000120 ed ed e8 bc c6 fc f6 bd ed f3 44 3d 75 02 5a bd
       -0.028433764 -0.120599315 0.04808419 -0.053225
000130 05 e6 20 bd c0 cb 18 bd 0b 46 cb 3d e3 35 10 3b
       -0.039281864 -0.037303686 0.09925469 0.0022004775
000140 72 7d af bc 31 53 d3 bc f4 14 26 3d 72 36 5b 3c
       -0.021422122 -0.025796505 0.040547326 0.01337968
000150 4c 9c 9c bc ef 74 58 bd 3d 36 1f 3d 02 86 10 bc
       -0.019117497 -0.05284589 0.038870085 -0.008821012
000160 b8 46 6c bd cd d2 c0 bd 19 1c 09 bd af 7b dd bc
       -0.05768463 -0.09415207 -0.03347406 -0.027036516
000170 26 5e b0 3d 24 6f cc bc 40 14 26 bd 10 06 aa 3c
       0.086117074 -0.02495534 -0.040546656 0.020754844
000180 3d 73 1b bd 63 5c 1f 3d 86 b5 92 bd 8a 5e 2e 3b
       -0.037951697 0.038906466 -0.07163529 0.0026606643
000190 80 3b 3a bd 52 e3 3c be 30 f8 cc 3c d9 1c 23 bd
       -0.0454669 -0.18446091 0.025020689 -0.039822433
0001a0 a0 98 82 3c f4 f6 4c bd ec f0 42 be 78 1f bb 3c
       0.015941918 -0.0500402 -0.19037217 0.022842154
0001b0 ff 9e 8e bd ca 8d ea bc a0 af 8c bd 89 77 a3 3d
       -0.0696392 -0.028632063 -0.06869435 0.07981784
0001c0 50 0c 31 bc 43 0c 01 bd b0 b3 25 3d 38 b6 25 bd
       -0.010806158 -0.031505834 0.040454566 -0.04045698
0001d0 7e 48 45 bd fc 83 4b 3d ff ba 63 3d 46 25 89 bd
       -0.048164837 0.049686417 0.055598255 -0.066965625
0001e0 50 72 f0 3c 2b a2 2a bd ec bd 87 3c 01 0c c5 bd
       0.029351383 -0.04165856 0.016570054 -0.0962143
0001f0 dd 93 62 bd 19 50 2c 3d ab 78 d6 3c 7a 0c 7c 3c
       -0.055316795 0.042068575 0.026180586 0.015383834
